week13/cifar_net.pth (torch, 90095 bytes, 8 tensors)

conv1.weight f4 [10, 1, 5, 5]
00000000: 9272 de3d 8540 81bd dbed 34be 6bba 8bbd
00000010: ba2d cebd e515 cb3e af82 03be 98e8 71be
00000020: c55f 8ebe ef2b 9fbd 989f f03e f423 cf3e
00000030: fb3e d1be b409 82be 17bc c9bd eff2 e6be
00000040: 9ad2 7b3f 2329 203f 0623 86bd 283e b6b9
00000050: 68bf 03bf b5ea d4be afe4 e63e a8ad e03e
00000060: 4bf5 753e 6ce6 f8be 7648 eebe 2cbf b8be
00000070: cce7 8cbe b2b9 52be 9568 69be 3faf 23be
00000080: 9fe5 97be 11b2 6bbe 3c11 83be 0cb7 79bc
00000090: c18e 6fbd 38df 8ebc 21a6 9b3c c3d3 f9bd
000000a0: 1213 aebb 3256 113e 57f7 203e 1b45 953d
000000b0: bb73 45be 5234 96bd b50d eebc 11e8 33bd
000000c0: 9bd7 28be 8c71 c8be 2a7c 93be 5824 7c3e
000000d0: fcb1 4c3e fda5 8ebe b8c9 bdbd b3e5 38bd
000000e0: bd8d 61be 5d57 3ebc 3700 27bf 8597 b5be
000000f0: f0bc 593e 562a 19be a444 fa3c 9eb3 7e3e
00000100: 7fbc 4f3f 3706 8fbd 84f8 febd 9985 453e
00000110: 1601 ed3e d6f6 6cbd d603 0c3e 7c9c b4be
00000120: 733e cc3e 20ce f4be 68ce 1fbf 530b 5abd
00000130: 2ddd db3d 6938 d63c 0a22 a63d 9ef8 16bd
00000140: a8bc 4abe 22ad c4bd eb12 e83e 0caf 263d
00000150: 21b7 55be d846 34be 3a73 d7be b42a 833f
00000160: bcdc 4fbc 9b9d bfbe 42c5 61be 9ecf fcbe
00000170: 2ee9 5f3f 029f 4fbc 8357 99be fd98 37be
00000180: a60f aebd b050 3e3f 9a9d ab3d f217 03be
00000190: 20b0 1a3f e838 ff3e 84c3 dd3d 5993 c63e
000001a0: 3ba2 053e 8849 1b3e 87ef 5dbf 8604 6dbe
000001b0: ef40 9dbe 43a9 26bd 7510 fd3d 59f6 c8be
000001c0: 8b75 f13d 4556 2e3e 9696 99be ad79 333e
000001d0: 38a5 19be e21d efbc 35e6 4fbe f82d 883c
000001e0: d6fe 2cbe cc76 0bbb e796 a63d 5bb8 8dbd
000001f0: 104d 153c 9956 e1bd ae8f bb3e ceb9 523e
00000200: 436c c8be 2e35 bb3e e543 c03e 5c1f 453e
00000210: 3a07 0ebf 86da 5dbf 9173 253f a3da 68be
00000220: efc2 5bbe 2c1f 7c3e c8b8 0d3f deb0 3f3d
00000230: 8357 c9bd 87cf bfbe c855 3ebe eb0d 0ebf
00000240: c690 553c eaee d83d ee48 5c3e 6f33 d03d
00000250: 38c2 4b3e ff6c dd3e 799f 103c 3e5d 6abe
00000260: 58a4 c5be 87dc 2bbe f0d0 a2bd 2a37 333e
00000270: 1721 01bf fc1a 40be 43d3 2a3e 9c74 0b3e
00000280: f790 5a3f b2b7 5d3f b6a2 633f 10b3 233f
00000290: d526 213e aa91 6ebc e481 febe 04b2 adbe
000002a0: 5648 5bbd ce6f 363e a75f 4ebd 8a2f 81be
000002b0: 9b59 d4bd 8684 1fbe 6921 0ebd 12a0 d83e
000002c0: 036d 703d 70fc 673d 8bc3 243d 27b6 4c3c
000002d0: a534 823e c7e6 1b3c 0f28 e1bd adc1 bfbd
000002e0: 46b7 98be 1828 123e 6222 b73d 10e0 90bd
000002f0: 7e31 febc 81cb 68be bafb 9b3d 7927 0a3e
00000300: eb6f 2abe 6daa 0fbe 5150 eebd 6417 133f
00000310: b665 e53e 03f9 8e3d c182 75bd 58b3 c03c
00000320: 5d2a 07be d81b 8cbe e215 89be c837 9f3c
00000330: 72b2 993e 5460 24be ddc4 05be d576 71be
00000340: 4c0f c73e 6161 6b3e e290 d6bd 6b5f 25be
00000350: 4060 cf3e dbd7 4b3f 466f 2dbd b30a e13d
00000360: 1e31 163e b3c8 2a3f 01ea 04be c2e8 b9be
00000370: 37ef 5d3e 5714 7f3e e99c 653d 5439 40be
00000380: b292 d4be 419a b3be b7aa e8bd 16f2 2ebe
00000390: 4ec0 c2bd 6acc 48bd 192c 41be e678 28be
000003a0: fbb5 c7be 6a03 babe a48d a6be 15eb 9abe
000003b0: 95a9 d6bd 824c 753c 1df3 5bbd edbe 9dbe
000003c0: 7dca bcbe ce22 ec3d f0a2 bd3d 4961 063e
000003d0: e3ab 403d 9d53 183e 0e89 023e 765a 943e
000003e0: 1950 fa3e 1cf5 e73e
0.10861696 -0.06311134 -0.1766886 -0.06822666 -0.100673154 0.39665142 -0.1284282 -0.23623884
-0.2780744 -0.077720515 0.4699676 0.40457118 -0.40868363 -0.25398028 -0.098503284 -0.4510722
0.9836823 0.6256277 -0.06549649 -0.00034760055 -0.5146394 -0.41585317 0.45096347 0.4388249
0.24019353 -0.48613298 -0.46539658 -0.36083353 -0.27520597 -0.2057865 -0.22793801 -0.1598482
-0.29667374 -0.23017146 -0.25599086 -0.015241396 -0.05848575 -0.017440423 0.019000115 -0.121985935
-0.005312332 0.14193037 0.15719353 0.072885714 -0.19282429 -0.07334198 -0.02905927 -0.043922488
-0.16488497 -0.3914913 -0.28805667 0.24623239 0.1998977 -0.27861014 -0.092669904 -0.045140933
-0.22026725 -0.011617509 -0.652347 -0.35467163 0.2126348 -0.14957556 0.030550309 0.24873206
0.81147 -0.06983607 -0.12449744 0.19289245 0.4628989 -0.05785259 0.13673338 -0.35275638
0.39891395 -0.4781351 -0.62424326 -0.053233456 0.10735545 0.026149945 0.08111961 -0.036858194
-0.19798529 -0.09603335 0.45326933 0.04069428 -0.2087064 -0.1760515 -0.42080098 1.0247407
-0.0126869045 -0.3742493 -0.22047904 -0.4937715 0.8746518 -0.012672188 -0.2994958 -0.17929454
-0.084990785 0.7434187 0.083796695 -0.12802103 0.60424995 0.49848104 0.10828307 0.38784292
0.13050167 0.15164769 -0.86693615 -0.23146257 -0.30713603 -0.040688764 0.123566546 -0.39250448
0.11789998 0.17025097 -0.299977 0.17526884 -0.15004432 -0.029189054 -0.20302661 0.016623482
-0.16894087 -0.0021280525 0.08134251 -0.06919929 0.009112611 -0.11002845 0.36633056 0.20578691
-0.39145097 0.3656401 0.375518 0.19250244 -0.55479777 -0.86661565 0.64629465 -0.22739653
-0.2146108 0.24621266 0.5536008 0.046799533 -0.09831145 -0.37463018 -0.1858741 -0.5548999
0.013035005 0.10592444 0.21512195 0.1016606 0.19898307 0.4324722 0.008827084 -0.22887132
-0.38601947 -0.16783343 -0.07950008 0.17501512 -0.50441116 -0.18760294 0.16682152 0.13618702
0.8537745 0.8660842 0.8892015 0.639451 0.1573747 -0.014561096 -0.49708474 -0.33924878
-0.05353578 0.17816088 -0.05038419 -0.25231582 -0.103686534 -0.15577897 -0.03469983 0.42309624
0.05869771 0.056637228 0.040225547 0.0124946 0.2543079 0.009515471 -0.10993969 -0.093631126
-0.29827327 0.14273107 0.08942105 -0.070739865 -0.03102946 -0.2273388 0.076163724 0.1349162
-0.16644256 -0.14029856 -0.11636413 0.57457566 0.44804162 0.06981089 -0.05993915 0.023523018
-0.13199754 -0.27364993 -0.26774508 0.019435778 0.30018955 -0.16052371 -0.13063379 -0.23580487
0.38878858 0.22986366 -0.10476853 -0.1614968 0.4050312 0.79626244 -0.042342447 0.10988369
0.14667174 0.6671249 -0.1297989 -0.36310393 0.21673284 0.24910103 0.056057844 -0.18771869
-0.4151817 -0.35078624 -0.11360686 -0.17084536 -0.095093355 -0.04902307 -0.18864478 -0.16452369
-0.39006028 -0.3633073 -0.32529938 -0.30257478 -0.10481564 0.014971854 -0.053698648 -0.30809727
-0.36873236 0.11530076 0.092595935 0.13123049 0.047038924 0.14875646 0.12747595 0.28975266
0.48889235 0.4530419

conv1.bias f4 [10]
00000000: 0bf1 60bf 8b76 09c0 98e7 96bf 054f 9bbf
00000010: 59d0 dcbe 19ab 20bf 775c 92bf ca4f 15bf
00000020: ff89 57bf 23ed debf
-0.878678 -2.1478603 -1.1789427 -1.213349 -0.43127707 -0.62761074 -1.1434468 -0.58324873
-0.8419494 -1.7416118

conv2.weight f4 [20, 10, 5, 5]
00000000: 5501 ac3e 52ca b13e 9e88 803c 060a d4bd
00000010: a06f 2bbe 5658 f13d 42fa 803d 3cf7 bdbd
00000020: 149a 0bbd d9d5 553e 85f2 6f3d 73b5 593d
00000030: e904 79be 6df8 063e fe71 963e 8dd8 bdbd
00000040: d7f3 bfbd dd53 1d3e 09f8 9d3e 7a37 c83e
00000050: 838c 2cbe 5e27 b23d 1ef3 363e 9763 ca3e
00000060: 9bf2 883e 4d58 15bc 17c6 c63c 0ede d93b
00000070: 3a32 e6bd 7d35 12be d425 8cbd 6f3c c1bd
00000080: c970 7ebd e8c0 d9bd 748d 29be e384 efbd
00000090: 01a9 97be fe9c 73be f7d0 10be 8d15 b5be
000000a0: 4721 cfbe 21da c5be 054c eebe 395f 87be
000000b0: 8bb1 c6be 02b2 08bf 8859 e7be 5940 e4be
000000c0: 5361 8fbe 88fd e0be 2ccb 963d 8c7d 4b3d
000000d0: ba07 393e 2ade 663c a340 b53d 3c3e 973d
000000e0: 8065 153d 0fbc 403e a7ce 273e 3d2c 583e
000000f0: 5060 f73d d0f9 3c3d 790b 733e 9299 323e
00000100: daa2 493e 7b47 fb3d 9c86 323e 1947 8b3d
00000110: ae1d 163e f80f 063e 4f09 163e beef 993d
00000120: 4588 3a3e 8b01 533d 627c 243d a488 803e
00000130: f08d c73e 88c7 f83e 9c16 d43e a0b9 053e
00000140: e0c7 ac3d 0143 5a3d d7cc a23e 5664 843d
00000150: 3a60 b73d f48a f1bd 0fa9 79be 03cc 203d
00000160: 75af 92bd d9cc b5bc 2868 28be cdef e33c
00000170: ebbc 003e 721b 833d 3377 093b c12b 173e
00000180: 3273 ad3e f5ab a33e fa52 4f3e a532 413c
00000190: 74fb 0c3c 10e7 e3bd 46ae fcbd 96ca b4bd
000001a0: c60c a73c b23d d0bd 0a85 b5bd c4ad c3bb
000001b0: 6683 73bd c90b dabd 548a 6ebc 1cb8 8abd
000001c0: c557 bdbd 5a94 4bbd a828 11bd a51c 4a3d
000001d0: e356 4dbd a728 14be 6f1e 87bc ab76 78bc
000001e0: 4c4e 113e ec3a be3c 35c9 9dbd c76d 8ebd
000001f0: 522c 543c 8e05 193e 2183 55bc 8eff 983c
00000200: dc50 f63d 6d24 2d3e 684e b23d 2f4a 073d
00000210: a4aa f93d 1ed6 dd3d 0f9c 3c3e c934 86bc
00000220: 2a48 82bb 25ba bb3c d431 dc3d a5e1 1a3e
00000230: 0083 b13c 7377 183d bb31 e03d da1f d43d
00000240: 6306 6abd b13e b33d 2e5e 023e 6d94 de3d
00000250: 9ccc afbb 8f1b 283d 2fe4 853c 611e 56bd
00000260: 4e00 24bd c7d2 adbd e67d 24bd dba7 843e
00000270: 22a8 f43d ba7f 9abd 1197 863d 52f4 153e
00000280: f5f1 083f 2d3b 0c3e c417 423a 63fc 323e
00000290: 80b6 8c3e 5c34 7b3e 2644 003e 2687 f1bc
000002a0: 2ad6 483e eba0 a93e bc7e 213e b253 5e3e
000002b0: 4019 a23d 3e47 063e 675e f03d 5552 343c
000002c0: 3b83 173c 3659 c4bd ec84 b13c 3508 37be
000002d0: 63b9 3d3d 2969 0ebe 65df 68bd e4db 9fbd
000002e0: 28aa f3bd 4ca7 22be 90fd 9cbd 7546 76bd
000002f0: 3467 47be 4f05 36be 2ff1 0ebe 7c75 a8bd
00000300: d0d2 733d 55fb f9bc beab 04be b538 9e3e
00000310: b4cd 873e c7b0 e73e 3f9d 593e d568 183e
00000320: ae28 8dbe 9003 e8bd 9e39 c7bc c61c c63d
00000330: 9816 703e 15bd 93bd e4f8 d9bd 644c 803d
00000340: e37f 4c3e 55ff 163e 61e9 0b3e ff0f b5bd
00000350: bf28 aabd 39dd c7bc bbd0 083e 5e1d 903e
00000360: c0e4 6f3e 254f edbd c3cf 40be 53ac 7e3d
00000370: eedd 983e b5f9 d93d 6851 a33c 945d febd
00000380: 4a63 02be b31f 5abd 6d1d 9dbe 6601 d5be
00000390: 63e4 3cbe 18a4 283e 415b c33d 6dde 5dbe
000003a0: a0b9 d1be c8a2 9abe df4e c23d 39b5 433d
000003b0: ae33 6ebe 8766 7cbd b48c 33be 5014 c63d
000003c0: 1996 febd 46ff 82be d1f6 84be 8ca0 39be
000003d0: 785a 993d 5af0 84be 89b6 97be 6b1c acbe
000003e0: d61f 44be 2502 e23d d291 26bd c249 073e
000003f0: 3aec 833e 02c2 953d cf3b 9fbd b0b9 74bb
0.33594766 0.3472467 0.015690144 -0.10353474 -0.167418 0.11784427 0.06297733 -0.09275672
-0.034082487 0.20882358 0.058580894 0.05315156 -0.2431828 0.13180704 0.29383844 -0.092698194
-0.09372681 0.15364023 0.30853298 0.39104825 -0.16850476 0.08698915 0.1786618 0.39529106
0.26747593 -0.009115291 0.024264378 0.0066487854 -0.11240049 -0.14278217 -0.06843153 -0.09435355
-0.06211928 -0.10632497 -0.16557866 -0.11695268 -0.29621127 -0.23790357 -0.14142214 -0.35368004
-0.40455076 -0.38642982 -0.46542373 -0.26439837 -0.3880733 -0.5339662 -0.45185494 -0.44580343
-0.2800394 -0.4394343 0.07362971 0.049680278 0.18069354 0.014091054 0.08850219 0.07384917
0.03647375 0.18821739 0.16387425 0.21110626 0.12078917 0.046136677 0.23734845 0.17441395
0.19691029 0.12269493 0.17434162 0.0680067 0.1465976 0.13092029 0.14651988 0.0751643
0.18216045 0.051515143 0.040157683 0.2510425 0.38975477 0.4858973 0.414235 0.13059092
0.08436561 0.053286556 0.31796905 0.0646445 0.08953901 -0.11794081 -0.24380897 0.03925706
-0.07162372 -0.022192406 -0.16445982 0.027824307 0.12572066 0.06401719 0.002097559 0.14762785
0.3387695 0.3196713 0.20246497 0.01179186 0.008604873 -0.11128056 -0.123379275 -0.08827703
0.020391833 -0.101680174 -0.08863266 -0.005971642 -0.059451483 -0.10646779 -0.014559347 -0.06773397
-0.09245256 -0.049702026 -0.035439163 0.049343724 -0.05013169 -0.14468633 -0.016494004 -0.015165011
0.14190024 0.023221456 -0.07704393 -0.06954532 0.01295002 0.14943525 -0.013031752 0.018676545
0.120271415 0.16908427 0.08706361 0.03302973 0.1219075 0.10831855 0.18418907 -0.016382592
-0.003975888 0.022915909 0.107516915 0.15125139 0.021668911 0.03722329 0.10946985 0.10357638
-0.057134997 0.08752192 0.12731239 0.10868154 -0.0053649675 0.041041907 0.016344158 -0.052275065
-0.040039353 -0.08487468 -0.04015913 0.25909314 0.11946131 -0.07543893 0.065717824 0.14643982
0.534942 0.13694449 0.0007404054 0.1747909 0.27482986 0.24531692 0.12525997 -0.02948339
0.19612947 0.33130583 0.15771002 0.21711615 0.07914972 0.13113114 0.11736756 0.011005958
0.009247596 -0.09587328 0.021669827 -0.17874224 0.046319377 -0.13907303 -0.05685367 -0.07805613
-0.11897689 -0.15884131 -0.07665551 -0.060125787 -0.19472963 -0.17775463 -0.13959192 -0.08225533
0.05952722 -0.030515352 -0.1295614 0.3090264 0.26524127 0.45252058 0.21251391 0.1488374
-0.275701 -0.113288045 -0.024319466 0.09673457 0.23446119 -0.07213799 -0.10643175 0.0626457
0.1997066 0.14745839 0.13663246 -0.08840942 -0.08308553 -0.02439748 0.13360874 0.28147405
0.23427105 -0.11587361 -0.18829255 0.06217606 0.2985682 0.10643331 0.019936278 -0.12420192
-0.12733188 -0.053252887 -0.30686513 -0.4160263 -0.18446498 0.16468847 0.0953889 -0.2166688
-0.40961933 -0.30202317 0.094877 0.04778025 -0.23261902 -0.061621215 -0.17534143 0.09671843
-0.124309726 -0.25585383 -0.25969556 -0.1812765 0.07487959 -0.25964624 -0.2963145 -0.3361543
-0.1915277 0.11035565 -0.04066641 0.1321173 0.25766164 0.07312395 -0.077750795 -0.0037342124

conv2.bias f4 [20]
00000000: 9ec9 c3be 364a 93bd 7e05 583e c2d9 07bf
00000010: 4b26 76bd 065f d5be b1d0 243d 0cf2 30bd
00000020: f799 413d 3310 c9bd 4e1c 393d 3dbb 21bd
00000030: 61da 773e 9521 b73d db4b f6be 859a 46be
00000040: 0c47 89bc 7cd4 643c 166c 1c3e ecaf 54bd
-0.3823976 -0.07191889 0.21095845 -0.5306665 -0.060095113 -0.4167406 0.040238086 -0.043199584
0.047265973 -0.09817543 0.04519301 -0.039485205 0.24204399 0.08941952 -0.48104748 -0.19394882
-0.01675751 0.013966676 0.15275607 -0.051925585

fc1.weight f4 [50, 320]
00000000: 8853 3e3d 4f45 2d3e 48c4 1d3d 9e10 dcbb
00000010: cfc3 1a3e d46e 49be efe5 acbd 230b e9bd
00000020: 7d73 983d 271e edbd 6196 5b3c e2f8 8bbd
00000030: b3c9 49be c9bb d0bd 3221 d3bd 0247 cdbd
00000040: f8a8 10be f35d 11be c013 cbbd f09e 06bc
00000050: 485e 78bc 8488 353d dc28 1cbe cb8c be3c
00000060: 8f56 a5bd db1f ffbd 6a7c d4bd 8d2e 04be
00000070: 88cd 36be e664 00be ab6b 6bbe 765c 5dbd
00000080: d436 813e e7e6 cf3c 9d5e f5bd a17b 3cbe
00000090: c95f 823e 7a69 ee3d 5b7e 9e3d abb5 07be
000000a0: 4290 9d3e 8c62 443e 7c94 a43d aef4 a6bd
000000b0: 5972 853d 6c7a 9a3d eb41 e93c b307 c5bd
000000c0: 0df6 293c 6f4e 2cbd 8ca4 07bd aa64 22be
000000d0: 7071 46be e414 f5bd 1629 303c 250b 48bd
000000e0: c366 c3bd fab8 db3c 2a42 1ebd 5a16 97bd
000000f0: b8f4 40be 33dc 6abd 853e 44be 1f8d e93c
00000100: d90b a03d c8cb bc3d d1c1 20bc ff18 e53a
00000110: eddd 43bd 39f8 d5bc 38f7 cbbb f5e1 f7bd
00000120: 579a 8cbb 679f 73bd f9b1 fa3d 376a c63d
00000130: a0e6 013d ccb8 fbbd 4b60 c3bd 8972 a2bc
00000140: 08f9 3fba 09a2 6b3e 759d 223e 3dcf 953e
00000150: da14 a7bc 9df2 1b3e 75c2 d73d 25f1 a83d
00000160: 76a7 25be 89d4 073e 84c8 3b3a e217 373d
00000170: a0a0 1abf 02ed 92be d0af 2abe 4a7f 1ebe
00000180: 4e26 bebc d864 8abb ce94 ddbd d799 383d
00000190: 35a5 c83d 75ad abbd 3a0b 76be e39e ddbd
000001a0: 1360 ee3c 652d e9bc e839 dabd 2a40 b13d
000001b0: 413b acbd b305 d0bd f378 b9bc c3ab fb3d
000001c0: 2fc1 dcbc 907f 17be 94c0 93bd a238 813d
000001d0: 1ce3 f3bc 1b48 443d 0b2a 9fbc 27dc a33d
000001e0: 9c74 34bc c5e6 96bd d98c 9cbd d611 703e
000001f0: 0ee3 f8bd 1d14 0d3e 810f 89bd 693b 243e
00000200: 5bdf 383c ed03 c0bc d919 b53d 2378 98bd
00000210: cbc7 9f3d 4c45 cebd c64b b73d d501 b4bd
00000220: 7ffd 203d 9918 04be e3fa 77bd e7b6 9bbd
00000230: d4db 6ebd ec62 603b 086c 92bd 6f0a 9b3d
00000240: fb12 42bd 7cd4 1b3c 8d00 ef3c 276b 48bd
00000250: ff37 d03d 9a6c febb 7e0f 21bd aac6 c93c
00000260: 141c c2bc a944 a1bd 57e2 e3bd 704f 743d
00000270: 637d 633d 2e6e b4bd 914f 8d3d a556 fbbd
00000280: 4c08 f53d a765 0d3d f380 ca3d 2223 97bc
00000290: 6978 a33d 5c8b 483e bca9 273d 8a2b da3d
000002a0: 294c ca3d d658 073e cb0e b93d 6b14 083e
000002b0: f7bd 5a3e 580e bf3d 15b6 923c c64e 9b3e
000002c0: 47df 94bd ae7c b83c 745c 24bd a744 ed3d
000002d0: b193 cdbc f38a 623d 6668 6f3d 5b77 ff3d
000002e0: 3e9b 53be c2ea 873d fee5 0b3c 338f 4ebb
000002f0: e40e b7be 1091 c6bd f8c0 ca39 af76 2f3e
00000300: cfaf 9f3d 4474 133d c01a 36be e04e 383d
00000310: e679 f23c a424 a5bd 0aed cabd 32fe 3c3d
00000320: 258c 3ebe a3f3 32bd cbbe 863d d971 553e
00000330: 048f 5fbe b7c4 92bd 861f 073e 1d50 1abd
00000340: ec1b 64be 7082 913b 1f29 9a3d 8fff a33d
00000350: eb7a bebd ef8a 55bd 5dc8 33bd 9b93 1fbd
00000360: 11ce 97bd 75c1 30be 1b9c 07be 60a7 9d3c
00000370: df39 7bbe 4a47 dbbe 889a 91be ed32 62be
00000380: 55bc b43d 55b8 df3d ce1d 24bc d6ab 99be
00000390: d24f bbbd dcb6 603c b425 e23c a983 05bc
000003a0: 00b1 0abd 4061 263e 9e48 81bd d822 d7bc
000003b0: 7928 0fbd 9a69 db3d 42ef a03d 953a 623e
000003c0: cdda b73e 6b1c f73d 6b8d 223d b186 213e
000003d0: 87c0 9f3e 866b 013d bade 653e 2be0 983d
000003e0: b8f8 1d3e bde4 d83d 9276 203d 213d 563e
000003f0: 6262 a43c 5eb9 0a3e 17f6 003e fbfc 9f3e
0.04646638 0.1692097 0.038517267 -0.006715848 0.15113758 -0.19671184 -0.08442294 -0.11379077
0.07443903 -0.11578017 0.013402552 -0.0683458 -0.19705848 -0.10192067 -0.10309066 -0.10023309
-0.14126956 -0.14195995 -0.099158764 -0.008216605 -0.015159197 0.044319645 -0.15249962 0.023260495
-0.0807315 -0.12457248 -0.103752926 -0.12908383 -0.17851841 -0.1253849 -0.22990291 -0.054043256
0.25237143 0.025378658 -0.11980937 -0.18406536 0.25463703 0.11641212 0.07738944 -0.13252895
0.30774122 0.19178218 0.08036134 -0.08152138 0.06515951 0.07542881 0.028473815 -0.09620609
0.0103736045 -0.042066988 -0.03311591 -0.15858713 -0.1937921 -0.11966875 0.010751983 -0.048838753
-0.095410846 0.026821602 -0.038637318 -0.0737731 -0.18843353 -0.057338905 -0.19164474 0.028509675
0.0781476 0.09218556 -0.009811834 0.0017478763 -0.047819067 -0.026119338 -0.006224539 -0.12103645
-0.0042908597 -0.05947819 0.12240977 0.096882276 0.03171408 -0.122911066 -0.09539851 -0.019830005
-0.00073231803 0.2301103 0.15880378 0.29259673 -0.020395685 0.15229268 0.105351366 0.0824912
-0.16177163 0.1326467 0.0007163363 0.04470051 -0.60401344 -0.28696448 -0.1666863 -0.15478244
-0.023211624 -0.0042234473 -0.10819398 0.045068588 0.09797136 -0.08382694 -0.2402772 -0.10821321
0.029098546 -0.028464029 -0.10655576 0.086548164 -0.08409739 -0.10157337 -0.02264068 0.1228862
-0.026947586 -0.14794755 -0.07214466 0.0630963 -0.02977138 0.047920328 -0.019429227 0.08000975
-0.01101413 -0.073682345 -0.07644052 0.23444304 -0.12152682 0.13777204 -0.0669241 0.16038288
0.011283721 -0.023439372 0.08842821 -0.07444789 0.07801779 -0.10071811 0.089499995 -0.08789412
0.039304253 -0.12900008 -0.060542 -0.07603245 -0.058315113 0.003423865 -0.071495116 0.075703494
-0.047381382 0.009511109 0.029175067 -0.048930313 0.101669304 -0.007764411 -0.039321415 0.024630863
-0.02369503 -0.07874424 -0.11127155 0.05964607 0.0555395 -0.088100776 0.06899942 -0.122723855
0.11964473 0.03452077 0.09887876 -0.01844937 0.07981951 0.19584411 0.040933356 0.10652836
0.09877808 0.13217482 0.09036025 0.13289039 0.21361528 0.09328908 0.01790909 0.30333537
-0.07269149 0.02252039 -0.040127233 0.1158536 -0.025094839 0.055308294 0.05844917 0.12473937
-0.20664689 0.066365734 0.008538721 -0.003151846 -0.35753548 -0.09695637 0.00038672215 0.17135118
0.07797205 0.03599955 -0.17783642 0.044997096 0.029599141 -0.08063629 -0.09908493 0.046140857
-0.18608148 -0.04368938 0.065793596 0.2084421 -0.218319 -0.07166427 0.13195619 -0.03767406
-0.22276276 0.004440598 0.075273745 0.08007728 -0.093007885 -0.05213445 -0.043892253 -0.038959127
-0.07412351 -0.17261298 -0.13243143 0.01924485 -0.24533795 -0.42827827 -0.2843821 -0.22089739
0.08824984 0.109238304 -0.010016872 -0.30013913 -0.09146084 0.013715472 0.027605869 -0.008149066
-0.033860207 0.16248035 -0.06312679 -0.026261732 -0.034950707 0.10713501 0.07858135 0.2209266
0.3590912 0.12065967 0.039685648 0.15774037 0.31201574 0.031596683 0.22448245 0.07464632
0.1542691 0.10590503 0.039175577 0.20921756 0.020066444 0.13547274 0.12593876 0.31247696

fc1.bias f4 [50]
00000000: 9706 e33d 45a0 a03b 4e33 0abe 8d45 bb3d
00000010: 1b00 75bd 9ebe b43e 5872 c33d 7954 a8bc
00000020: 5ebf eb39 eb49 58bd 3405 863e 3b8c 7dbe
00000030: ac48 45bd 0c1d da3d 86b7 babd 40fc 37be
00000040: 995f a0bd d683 d53c 269d aabd 7d84 613d
00000050: 47e7 be3c bb13 a2bc 0287 2d3e 58e0 823d
00000060: 213e 08be 2916 18bd 50de c23e 5f08 af3d
00000070: 3200 51bd 997b be3b 55ea 693d 6db1 073e
00000080: 1091 113d 9948 21be d8a3 e9bd 16f7 87bd
00000090: 6bff 123e 2277 a13d 3506 bb3d 13d7 3dbe
000000a0: 4f29 9a3d ab58 7e3e c7de 03bd 8282 603e
000000b0: fe40 033a 06f3 96bc 9fa1 23bd ea24 863e
000000c0: aed4 993e 949a 32bc
0.11085241 0.004901918 -0.13496134 0.09144125 -0.059814554 0.3530168 0.09543294 -0.020548092
0.00044965273 -0.05280487 0.26175845 -0.24760525 -0.04816501 0.106500715 -0.091170356 -0.1796732
-0.07830734 0.02606384 -0.08330755 0.05505799 0.023303641 -0.019784799 0.16946033 0.063904464
-0.1330495 -0.03713051 0.38060236 0.085465185 -0.051025577 0.005813074 0.057108242 0.13251276
0.035538733 -0.1575035 -0.11408204 -0.06638925 0.14355247 0.07884051 0.09132043 -0.18539076
0.0752741 0.24838512 -0.03219488 0.21924785 0.0005006938 -0.01842643 -0.039949056 0.26200038
0.30045074 -0.010901112

fc2.weight f4 [10, 50]
00000000: 5d9a e0be 9fff 303e 11a9 1d3e be74 d1bd
00000010: 34a6 373e 6cd3 d1be 69bd c9bd 4bda 4fbe
00000020: 3e84 0cbe e815 5a3d e137 9d3e ebb0 8e3d
00000030: 1326 183e d859 05bf e189 5f3d 4288 bb3e
00000040: b1bb 8d3d 1688 023e d0b2 c4be 716b 23bd
00000050: 460b b63e ac3f 443c b227 b43d 3b02 8b3e
00000060: baaf da3e 4847 c23d 367a d8be fdab b5be
00000070: ab79 cfbe fed8 fdbd 9885 113e 1d2f 04bf
00000080: 7695 e53e cfbb ca3e 482d 723e 02ab 103e
00000090: 31fc 8dbe 461c 7cbe 5196 7d3e 1358 533e
000000a0: e798 a9be 1ab5 23bf 0256 0d3e 8857 8f3e
000000b0: 78eb afbe 79d2 903e b5dc b73d dbc0 62be
000000c0: f4cd 3d3e 9033 e03d 4559 b8bd 688c 8abe
000000d0: a870 a8bd d85b be3e 1dab 0fbf c87d fa3e
000000e0: fa15 e3bd 3a83 81be e09a 363e 8907 3abf
000000f0: 26bf 2c3f c95c 63be 34bc 183e 98c6 f63d
00000100: 809a 5fbe e3e4 afbe 794e 67be 0ce0 563e
00000110: e245 4fbe c709 40be 3efb 27be 2153 7d3d
00000120: 96bd 92bd a944 9a3e 6f80 bcbe 1fbf 77be
00000130: 3998 8c3e 9e81 8a3e dca6 6bbd 81a7 c4be
00000140: 3958 053f e792 833e b6cc 1b3e fb23 3ebf
00000150: c84e 93be 255f d7be 8d0b c13c 62de ea3e
00000160: a23d 153f 3c36 3ebf 1e09 3c3e d44c 9b3e
00000170: 1035 833e 8b09 ef3e 292b 2e3c 0845 583d
00000180: 6b59 a2be 2a8f af3e c0d8 0a3f 9af2 15bd
00000190: ccd1 2ebd 635c 6e3e e746 053f ede4 d93e
000001a0: f957 a0be 640a a3be b50c d83e 458a fb3d
000001b0: a53e 78be 6241 73bc c9aa 12bf 72f0 ffbd
000001c0: 9ef9 913e efc3 983e 58ff 28be adee c63e
000001d0: 29fa bc3e 6899 943e 5d67 3bbe 4650 8cbd
000001e0: 8fdf 92be ac1c 7e3e a6d8 16be 6492 84be
000001f0: 846e 693e d4d0 aa3e 1352 32be 2127 0d3f
00000200: f9b8 9fbd 9b42 ab3e 0d77 6e3e f55a cf3d
00000210: 45c6 023e 935b 09be 5ea0 11be a068 4fbe
00000220: c67d 4b3e 5a4d 753e 5592 3d3d 2045 aabd
00000230: 660f 85be d6c8 2fbe 74a7 05be 287b 21be
00000240: d94d 63bd 7c65 623d d2cf cbbe 4369 283d
00000250: 7dcf 1f3e eeb6 a63e 6f12 183f 83af e2be
00000260: eb4f 853d 5766 753e 2eb4 f53d 36ad 08bf
00000270: 61bf ae3e 2012 98be fd68 823e c2f3 8e3e
00000280: 60b1 e3be 5a91 c3be 93e5 2f3e 426e 5bbe
00000290: 5ad8 afbd 5da3 b53d c845 f1bd e9f5 013d
000002a0: 2569 a9be 0d13 953e 43a1 87be 1345 e33e
000002b0: c856 453e d38c c2be 82ba 113e 7f85 83be
000002c0: e191 0fbd a7f1 863e 0165 5c3e 680c 373e
000002d0: ca68 9ebe ba80 9b3d d5a5 5ebe 05aa 9d3e
000002e0: eb7a 0a3e 6af9 0cbe cc3f 913e a2df 223d
000002f0: b8f3 54be cc3c 79be 3315 0bbe e1f0 723d
00000300: ace9 e6bc c0a2 05be f1cb 9e3e a980 24be
00000310: 8447 6bbe 7bae 17bd d044 3bbe 0e46 13be
00000320: a560 53bd d3fd 0e3f a238 8abc a231 babd
00000330: ea02 5ebe 12dc 813e f8e7 abbe 81c8 d13e
00000340: d77d 35be fa2d 5ebd a58d b3be 8038 9a3e
00000350: d23b 8bbe 825f b03e 662f 54be 0ba6 9b3c
00000360: cca7 513e 1694 cdbe 16e5 e13e d09e 4bbe
00000370: a76c ca3e fd9b 8c3e a09c 54be a083 debd
00000380: 6f5c b6be fac4 0a3e 0278 d63e 8efa 37be
00000390: e50c 6a3e 5fe1 37be 6fdc bf3d 890d 7a3e
000003a0: 79e0 d7be e818 ea3b 10b8 c43d dc56 64be
000003b0: 4909 603e 4e67 96be 482d 033f c48d 2fbd
000003c0: 7492 2abe 1ea7 fe3e eb82 e33d b751 b1be
000003d0: 360f 2abd 4a87 5bbe 168e 9bbd 7492 74be
000003e0: 7916 9bbe 8a65 843c c1ea 0a3e 639f 50be
000003f0: 5127 20be 8223 5d3e 7fa9 b93e 66b4 4abe
-0.4386777 0.17285012 0.15396525 -0.10227345 0.17934495 -0.40981615 -0.0985058 -0.20298116
-0.13722321 0.053243548 0.30706695 0.06967338 0.14858274 -0.52090216 0.05457485 0.36627394
0.06920565 0.12747225 -0.38417673 -0.039897386 0.35555476 0.011978071 0.08796634 0.2715014
0.42712194 0.09486252 -0.4228074 -0.3548278 -0.40522513 -0.123949036 0.14211118 -0.5163439
0.44840592 0.39596412 0.23650086 0.14127734 -0.2773147 -0.2462016 0.24764372 0.20639066
-0.33124468 -0.63948214 0.1380234 0.2799647 -0.34359336 0.28285578 0.089776434 -0.22143881
0.18535596 0.10947335 -0.09001402 -0.27060246 -0.082246125 0.37179446 -0.56120473 0.48924088
-0.11088176 -0.2529543 0.17832518 -0.7266775 0.6747917 -0.22203363 0.14915544 0.120495975
-0.21836281 -0.34354314 -0.22588529 0.20983905 -0.20241502 -0.1875373 -0.16404435 0.061846856
-0.07165067 0.3013051 -0.36816737 -0.24194 0.27459887 0.27052015 -0.057532176 -0.38409045
0.5208774 0.25698015 0.1521481 -0.7427365 -0.28771043 -0.42064777 0.023565078 0.4587279
0.5829717 -0.74301505 0.18362853 0.30332053 0.2562642 0.46686968 0.010630407 0.05280021
-0.31708845 0.34288913 0.54236984 -0.036608316 -0.042680547 0.2327743 0.52061313 0.4255747
-0.31317118 -0.31843865 0.42197195 0.12282232 -0.24242647 -0.014847131 -0.5729185 -0.12497033
0.28510755 0.29836985 -0.16503656 0.3885397 0.36909607 0.2902329 -0.18301149 -0.068512484
-0.28686187 0.24815625 -0.14731082 -0.25892937 0.22796065 0.33362448 -0.17414121 0.5513783
-0.077989526 0.33449253 0.23287602 0.101247706 0.12770946 -0.13413839 -0.14221331 -0.20254755
0.19872198 0.23955289 0.04628213 -0.08313966 -0.2598831 -0.17166457 -0.1305216 -0.15769637
-0.055494163 0.055272564 -0.39806992 0.04111601 0.15606494 0.3256144 0.5940313 -0.4427453
0.06509384 0.23964821 0.11997257 -0.533893 0.34130386 -0.29701328 0.25470725 0.27920347
-0.44471264 -0.38196832 0.1717742 -0.21428779 -0.08586188 0.0886905 -0.11780888 0.03172866
-0.3308803 0.29116097 -0.2649022 0.44388637 0.19271386 -0.37998065 0.14231303 -0.25687787
-0.03505123 0.2635624 0.21522905 0.17875826 -0.30939323 0.07592912 -0.21742947 0.30793777
0.13523452 -0.13767019 0.28368986 0.039764054 -0.20796096 -0.24339598 -0.13582306 0.05931175
-0.028187595 -0.13050365 0.3101497 -0.16064705 -0.229765 -0.037031632 -0.18287969 -0.14382192
-0.05160584 0.55856055 -0.016872708 -0.09091498 -0.21680799 0.25363213 -0.33575416 0.40973285
-0.17723785 -0.054243065 -0.35069004 0.3012123 -0.27194077 0.34447867 -0.20721206 0.019000074
0.20474166 -0.40152043 0.4412009 -0.19884801 0.3953602 0.2746276 -0.20762873 -0.10864949
-0.35617396 0.13551703 0.41888434 -0.17966673 0.22856481 -0.17957066 0.09368216 0.24419226
-0.42163447 0.0071440823 0.0960542 -0.22298759 0.21878542 -0.2937569 0.5124097 -0.042859808
-0.1665743 0.49736875 0.11108955 -0.34632656 -0.041518413 -0.21438327 -0.0759546 -0.23883992
-0.30290583 0.016161699 0.13566114 -0.20373301 -0.15639998 0.21595576 0.36262128 -0.19795379

fc2.bias f4 [10]
00000000: 3060 dbbe 3699 de3e 41b3 cbbd 7c57 1c3e
00000010: 69d2 4d3e d742 603d 8a26 62be 1b1a 173d
00000020: e2dd a63d a6f6 e6bd
-0.42846823 0.43476266 -0.09946299 0.15267748 0.20099796 0.054751243 -0.22085014 0.03689013
0.081477895 -0.11277513
