week13/mnist_net.pth (torch, 90095 bytes, 8 tensors)

conv1.weight f4 [10, 1, 5, 5]
0	0x3dbcfd2c	0.09227976
1	0xbe03cdf2	-0.1287153
2	0xbe1c16cd	-0.15243073
3	0x3d92976f	0.0715779
4	0x3e10fee3	0.14159732
5	0x3e6fcc6f	0.23417829
6	0x3d335163	0.04377879
7	0xbe4e918c	-0.20172709
8	0x3cc4e419	0.024034547
9	0xbddf046b	-0.108895145
10	0x3e2d5b7f	0.16929434
11	0x3c3cc7c0	0.0115222335
12	0x3c30390e	0.01075579
13	0xbe703aa1	-0.23459865
14	0xbe684335	-0.22681887
15	0x3e498524	0.19679695
16	0x3cd34daa	0.025793869
17	0x3d777c51	0.06042129
18	0xbd5799c5	-0.05263688
19	0xbd2767a3	-0.04087032
20	0xbda0c077	-0.0784921
21	0xbdad5c3d	-0.08464859
22	0x3e380aa3	0.17972808
23	0x3e8fa79f	0.28057572
24	0x3e8de8b7	0.2771661
25	0xbe8ff878	-0.28119254
26	0xbe40164e	-0.18758509
27	0xbd0ee666	-0.034887694
28	0xbd0eaa1c	-0.034830198
29	0xbdc49e20	-0.096004725
30	0xbe915fec	-0.28393495
31	0xbe7d4ad1	-0.24735571
32	0xbe570b75	-0.21000464
33	0xbe2d1c79	-0.16905393
34	0x3c995d18	0.018721148
35	0xbcef028b	-0.029176017
36	0xbe5bc0d8	-0.21460283
37	0xbe7a5132	-0.24445036
38	0xbe7878c5	-0.2426482
39	0xbdd57486	-0.10422616
40	0xbe620261	-0.2207122
41	0xbdb0b059	-0.08627386
42	0xbd97f9ba	-0.074206784
43	0xbe84b62e	-0.25920242
44	0x3bfca9b9	0.007710662
45	0x3dab1715	0.08354012
46	0x3d3ce3d2	0.046115704
47	0xbe38e9f0	-0.1805799
48	0x3cb3044c	0.021852635
49	0xbe1c7d39	-0.15282144
50	0x3ca269ab	0.019825777
51	0xbe45cec0	-0.1931715
52	0xbec65fdc	-0.3874501
53	0xbe571817	-0.21005283
54	0x3dcb8ba9	0.099387474
55	0x3e6f8888	0.23391926
56	0x3e349185	0.17633636
57	0x3e35d012	0.17755154
58	0x3deec1c5	0.11658052
59	0xbd3f4fa4	-0.04670681
60	0x3df4bf3b	0.11950537
61	0x3d46411a	0.04840193
62	0xbe47858b	-0.19484536
63	0x3e9644b2	0.29349285
64	0x3e9c2385	0.3049585
65	0xbe363a26	-0.1779562
66	0xbb5e26f6	-0.0033897734
67	0xbe1800f1	-0.14844109
68	0x3e23f3f1	0.16011025
69	0xbe150365	-0.14552076
70	0x3e4f3bbb	0.20237629
71	0xbe2e3e4b	-0.1701595
72	0xbe925628	-0.28581357
73	0xbd4f98aa	-0.0506827
74	0xbe85969d	-0.2609147
75	0x3e9ee1ca	0.31031638
76	0x3d10525a	0.035234787
77	0x3e0e8d8d	0.13921185
78	0xbe7d9ee5	-0.24767645
79	0xbcbc646e	-0.022997107
80	0xbe9e10f4	-0.3087231
81	0xbe898d56	-0.26865643
82	0x3e583a62	0.21116021
83	0xbdc26a4a	-0.09492929
84	0x3e751c33	0.23936538
85	0xbe431702	-0.19051746
86	0xbd340311	-0.043948237
87	0x3c91c039	0.017791854
88	0x3e18d99b	0.1492676
89	0xbde8e450	-0.11371672
90	0xbe0cb7fb	-0.13742058
91	0xbb63e32e	-0.003477286
92	0x3d2789f9	0.040903065
93	0x3e5b3634	0.21407396
94	0xbd1c7bb8	-0.038203925
95	0xbd48556d	-0.048909593
96	0x3e026099	0.12732162
97	0x3e9fe169	0.31226662
98	0xbd538c1e	-0.051647298
99	0xbeb5cfb1	-0.35510018
100	0x3e7cb6f7	0.2467917
101	0x3e390669	0.18068852
102	0xbe1ff476	-0.15620598
103	0x3dcca509	0.099924155
104	0x3cdb26fd	0.02675199
105	0x3e0f484e	0.13992426
106	0x3e341d2f	0.17589258
107	0xbdf94957	-0.121721916
108	0xbc15fe69	-0.009154894
109	0xbe2ac9a2	-0.1667848
110	0x3e1e79bf	0.1547613
111	0x3ce84f94	0.028358258
112	0x3d91b6d4	0.0711495
113	0x3e45892c	0.19290608
114	0xbbc5f737	-0.006041433
115	0x3ca8e455	0.02061669
116	0xbdc10841	-0.094254024
117	0x3e17c4f6	0.14821228
118	0x3e9c00fe	0.30469507
119	0x3e1ef25f	0.15522145
120	0xbe3a6d1a	-0.18205681
121	0x3e0f36aa	0.13985696
122	0xbce0cbf5	-0.027441004
123	0x3e842502	0.25809485
124	0x3e874999	0.26423338
125	0x3da58d61	0.080836065
126	0x3e4a3815	0.19747956
127	0xbe26b90f	-0.16281532
128	0xbdebe24b	-0.11517771
129	0x3c446100	0.011986017
130	0x3d543568	0.051808745
131	0xbcfa5ccd	-0.030561829
132	0xbd6d9b82	-0.058009632
133	0x3d55e197	0.052217092
134	0xbe60bdc9	-0.21947397
135	0x3e78a9b5	0.24283488
136	0x3e85e027	0.26147577
137	0x3e7028a7	0.23453008
138	0x3e3050ff	0.17218398
139	0xbbb51ab4	-0.005526865
140	0xbe81bdcd	-0.2534012
141	0xbe9cb071	-0.30603364
142	0xbca28255	-0.019837538
143	0x3da72312	0.08160986
144	0x3e3a5a6e	0.18198559
145	0xbe0cea78	-0.13761318
146	0xbe6ff4df	-0.23433255
147	0xbe25f8b0	-0.16208148
148	0x3e0b81e9	0.13623776
149	0x3db2791a	0.087145045
150	0x3df442a3	0.119267724
151	0xbdb65eb3	-0.08904781
152	0xbe5066ed	-0.20351763
153	0xbb838cda	-0.0040145935
154	0x3e6b13b8	0.22956741
155	0xbc1df96b	-0.009641985
156	0xbe3ee2f5	-0.18641265
157	0xbe6dd107	-0.23224269
158	0xbe2fe605	-0.17177589
159	0xbe451776	-0.19247231
160	0x3e59ae9a	0.21258011
161	0x3db131f7	0.08652108
162	0xbe140282	-0.14454082
163	0xbdd591d7	-0.10428207
164	0x3cee89ec	0.0291185
165	0x3e36efe0	0.17864943
166	0xbd37b193	-0.044847082
167	0xbd20db3b	-0.039271574
168	0x3e478aaa	0.1948649
169	0xbe63b475	-0.22236808
170	0x3abf2f20	0.0014586188
171	0x3e38a55f	0.18031834
172	0x3ea2a03b	0.3176287
173	0xbd7c5bc5	-0.061610956
174	0x3e81e6a6	0.25371283
175	0xbd288403	-0.04114152
176	0xbe4252e0	-0.18976927
177	0xbe56c112	-0.20972088
178	0xb98d2c7e	-0.00026926765
179	0xbda9656a	-0.08271296
180	0xbd15ef88	-0.036605388
181	0x3c592636	0.013253739
182	0xba571afc	-0.000820562
183	0xbc06b143	-0.008220973
184	0xbe0c9c5b	-0.1373152
185	0x3c900c0a	0.017583866
186	0xba802a03	-0.0009778145
187	0xbe239f2d	-0.1597869
188	0xbce1ea0a	-0.027577419
189	0xbe57ac08	-0.21061718
190	0x3dea5d9e	0.11443637
191	0x3d2f50e5	0.042801756
192	0x3e099759	0.13436641
193	0xbe19aadc	-0.15006584
194	0xbdfefa93	-0.12450137
195	0xbca34874	-0.01993201
196	0xbdefcfc4	-0.1170955
197	0xbd77d554	-0.06050618
198	0xbe1b3aa9	-0.15159096
199	0xbc82fe64	-0.015990444
200	0xbdd69aff	-0.10478782
201	0xbe6bfa8b	-0.23044793
202	0xbe495a08	-0.1966325
203	0x3e304015	0.17211945
204	0xbe21ea28	-0.1581198
205	0x3d4cdf94	0.05001791
206	0x3c943c70	0.018095225
207	0x3e02d622	0.12776998
208	0xbc8aa5b1	-0.016924711
209	0xbe8a2a07	-0.2698519
210	0x3e90b982	0.2826653
211	0x3e800680	0.2500496
212	0xbd9b3671	-0.07578743
213	0x3d2578ee	0.04039853
214	0xbd466283	-0.04843379
215	0xbdb5ca36	-0.08876459
216	0x3d5eef93	0.054427695
217	0x3e0bc347	0.13648711
218	0xbe225cee	-0.15855762
219	0xbe49ec7e	-0.19719121
220	0xbe4ba93b	-0.19888775
221	0x3cf9d7d7	0.030498428
222	0x3dbe1f60	0.09283328
223	0x3e5b155d	0.21394868
224	0x3e90c438	0.28274703
225	0x3c45310b	0.012035619
226	0x3ce89924	0.028393336
227	0x3d887662	0.06663205
228	0x3dc0c28f	0.09412109
229	0xbd8abbe0	-0.067741156
230	0xbe595f31	-0.21227719
231	0xbce525d2	-0.027972136
232	0x3d64456a	0.05573026
233	0xbdac0e35	-0.08401147
234	0x3df99983	0.12187483
235	0xbd8ba7ac	-0.0681909
236	0x3e16cb7c	0.1472606
237	0xbbf3611e	-0.0074273488
238	0xbe86ded7	-0.26341888
239	0x3e3c7b4b	0.18406408
240	0xbe17f97a	-0.14841262
241	0xbdcf4a89	-0.10121638
242	0x3e2138ee	0.15744373
243	0xbe5e9813	-0.21737699
244	0x3d0a1313	0.033709597
245	0x3e248a90	0.16068482
246	0x3d71d37b	0.059039574
247	0x3d50853d	0.050908316
248	0xbcbc0888	-0.022953287
249	0xbd9b268f	-0.07575714

conv1.bias f4 [10]
0	0xbe013402	-0.12617496
1	0xbe38fe8a	-0.18065849
2	0x3e2104e0	0.15724516
3	0xbde7179d	-0.11283801
4	0x3e5eb0bb	0.21747105
5	0x3db29ab5	0.08720914
6	0x3d8c1499	0.06839866
7	0xbddd66ad	-0.108105995
8	0x3d34f34f	0.04417735
9	0xbe037c46	-0.12840375

conv2.weight f4 [20, 10, 5, 5]
0	0xbd0216f3	-0.031760167
1	0x3d89cbd4	0.0672833
2	0x3d7c5eef	0.061613973
3	0x3cfdfbcb	0.031003853
4	0x3d6c1423	0.05763639
5	0x3d203895	0.03911646
6	0x3d909602	0.07059862
7	0x3c9de9c2	0.019276503
8	0x3ce8619c	0.028366856
9	0xbccf5bf1	-0.025312396
10	0xbc1dc187	-0.00962866
11	0x3d725f64	0.059173003
12	0xbd3aa5a4	-0.045568123
13	0x3c6d6747	0.014489955
14	0x3d346ca7	0.04404893
15	0xbc814fea	-0.015785176
16	0xba502ada	-0.00079409557
17	0x3d00fa7e	0.031488888
18	0x3c8a570b	0.016887208
19	0xbcd89590	-0.026438504
20	0x3c45a6a2	0.012063654
21	0x3dd76068	0.10516435
22	0x3d8466fd	0.06464956
23	0x3c2e1183	0.010624292
24	0x3d093b2d	0.0335037
25	0xbd10c8bf	-0.035347696
26	0xbd917239	-0.07101864
27	0xbdcd69dd	-0.100299574
28	0xbda05990	-0.07829583
29	0xbcf28a74	-0.029607035
30	0xbd529117	-0.0514079
31	0xbcd4a717	-0.02595858
32	0xbd95f7c7	-0.073226504
33	0xbd20f554	-0.039296463
34	0xbd91a0f7	-0.0711078
35	0xbdde43c9	-0.10852773
36	0xbd1881c6	-0.037233137
37	0xbd29de06	-0.041471504
38	0xbd091d04	-0.033474937
39	0xbce6d5a3	-0.028178042
40	0x3c4610d9	0.012088978
41	0xbc995a0d	-0.018719697
42	0xbdd4837d	-0.10376642
43	0xbd6e8e66	-0.05824127
44	0xbc9cfd3b	-0.019163718
45	0xbd61b984	-0.055108562
46	0xbdc9a506	-0.09845929
47	0xbda6b5f1	-0.08140171
48	0xbd24e0b0	-0.04025334
49	0xbd8b685a	-0.06807013
50	0xbca3ebd9	-0.020009922
51	0x3dbddb9e	0.09270404
52	0x3c478c48	0.012179442
53	0xbc682ce3	-0.014170858
54	0x3d003245	0.03129794
55	0x3c87b552	0.016565952
56	0x3d374709	0.04474548
57	0x3b3c202f	0.0028705706
58	0x3c1b1e2e	0.009467645
59	0x3d728e9e	0.05921804
60	0x3d0305a4	0.0319878
61	0x3da35af2	0.07976331
62	0x3d38e528	0.045140415
63	0x3d2b366b	0.041799944
64	0x3cb37f3c	0.021911256
65	0xbcb2ceb2	-0.021827076
66	0xbc775580	-0.015096068
67	0x3d8b2c52	0.06795563
68	0x3d48751c	0.04893981
69	0x3d30e514	0.043187216
70	0x3cfc2d1f	0.030783234
71	0xbd0c0d9e	-0.034192674
72	0x3ce50d40	0.02796042
73	0xbd068b57	-0.03284773
74	0x3d83cab4	0.06435147
75	0x3db5c476	0.088753626
76	0x3d341351	0.043963734
77	0x3d02b97c	0.031915173
78	0x3d0d3d03	0.034482013
79	0x3dc7c4e6	0.09754352
80	0x3d3609ae	0.044442825
81	0x3a82600a	0.0009946835
82	0x3d79ff89	0.061034713
83	0x3cf43729	0.029811459
84	0x3d9245f5	0.071422495
85	0xbcc24da3	-0.02371866
86	0x3cfe7557	0.031061811
87	0x3c81d1d6	0.015847128
88	0xbcdd18c7	-0.026989354
89	0x3b296c1f	0.0025851799
90	0x3d2c76cf	0.042105492
91	0x3dc696fb	0.09696766
92	0x3d2c0a18	0.042001814
93	0x3d36e798	0.04465446
94	0x3da860f0	0.08221614
95	0x3d9e92e5	0.07742862
96	0xbd2983d2	-0.04138548
97	0x3d5c5ac1	0.053797487
98	0xbc846b9b	-0.016164592
99	0xbd179b8d	-0.03701358
100	0x3d6ef7f2	0.058341928
101	0xbd974d97	-0.07387846
102	0x3d14b49d	0.03630506
103	0x3cf749f9	0.03018664
104	0xbd4bee2c	-0.049787685
105	0x3c685491	0.014180318
106	0x3ca8cf0b	0.020606538
107	0x3d1d356b	0.03838102
108	0xbd4b29a2	-0.04960025
109	0x3cca5d3f	0.024702666
110	0x3da36715	0.07978646
111	0x3d9d1b3c	0.0767121
112	0xbb769b4b	-0.0037629183
113	0xbd574e57	-0.052564945
114	0x3d1ad836	0.03780385
115	0x3d52d618	0.051473707
116	0xbcbb43c0	-0.022859454
117	0x3ce4fac4	0.027951606
118	0xbd49d961	-0.049279574
119	0x3c4dc0d5	0.012558182
120	0x3d99ed0b	0.075159155
121	0x3d99beb9	0.075070806
122	0x3dc024ee	0.09382044
123	0x3dce44fa	0.1007175
124	0x3a2c6b3e	0.00065772596
125	0x3d5b9dab	0.05361716
126	0x3d27f1e6	0.041002177
127	0x3d8771c4	0.06613496
128	0x3c965464	0.018350787
129	0x3bbc9a1e	0.005755677
130	0x3d006a2f	0.031351265
131	0xb8215d58	-3.8472324e-05
132	0x3db3e53d	0.08783958
133	0x3a6ce97e	0.00090374786
134	0x3c8dd48f	0.01731327
135	0x3d00eb3e	0.031474344
136	0xbc872064	-0.016494937
137	0x3c6fed4b	0.014643977
138	0x3c0a47a2	0.00843993
139	0xbc4b7bbc	-0.012419637
140	0x3c77cbca	0.015124271
141	0xbd11d12c	-0.035599872
142	0xbd0c4412	-0.034244604
143	0x3d7042f9	0.05865762
144	0x3d828e90	0.06374848
145	0xbd126a28	-0.03574577
146	0xbb4b2789	-0.0030998907
147	0xbcc72825	-0.024311135
148	0xbc8130b7	-0.0157703
149	0xbbef378c	-0.007300323
150	0xbd26a0fd	-0.040680874
151	0xbca5fa00	-0.02026081
152	0x3bec3508	0.0072084703
153	0x3d476599	0.048680875
154	0xbd426361	-0.047458056
155	0x3d5ba302	0.053622253
156	0x3c21e43c	0.0098810755
157	0x3c8e8aa4	0.017400093
158	0x3d59ddb4	0.05318995
159	0xbc1b0301	-0.009461165
160	0x3cdc8ff1	0.026924105
161	0x3d9a9673	0.07548227
162	0x3d12c6ca	0.03583411
163	0xbb9b1e21	-0.0047338163
164	0xbd41a4e5	-0.047276396
165	0x3d582eac	0.052778885
166	0x3d619584	0.05507423
167	0x3d563071	0.05229229
168	0xbd3978f7	-0.045281377
169	0xbcc95ba9	-0.02457984
170	0xbd494646	-0.049139284
171	0x3d81d130	0.063387275
172	0x3dbdab40	0.09261179
173	0x3d3c741c	0.046009168
174	0x3c8080ce	0.015686419
175	0xbb66a93f	-0.0035196093
176	0x3d7343ca	0.05939082
177	0x3d37c0f5	0.044861753
178	0xbd8457e4	-0.06462076
179	0xbcb5d410	-0.022195846
180	0xbd861cdc	-0.06548473
181	0xbbcdb7cf	-0.006278015
182	0x3d5238ef	0.051323827
183	0xbd005952	-0.031335182
184	0xbd309a1b	-0.043115716
185	0xbc2079c6	-0.009794658
186	0xbd184e7e	-0.03718423
187	0xbd387e38	-0.045042247
188	0x3a508894	0.0007954922
189	0xbd3cbd51	-0.046078984
190	0xbd8c50f3	-0.06851377
191	0xbd362aef	-0.04447454
192	0x3ba5b1cd	0.005056596
193	0xbd1f64b5	-0.0389144
194	0xbd55e390	-0.052218974
195	0xb969fe73	-0.00022315401
196	0xbd6be1a6	-0.057588242
197	0xbd0969db	-0.033548217
198	0x3c21a752	0.009866552
199	0xbcd21502	-0.025644783
200	0xbca3fa35	-0.020016769
201	0x3d1c8dc5	0.03822114
202	0x3d5481a8	0.051881462
203	0x3c24cc24	0.010058437
204	0xbce17f64	-0.027526565
205	0x3dad89b6	0.08473532
206	0x3d534c99	0.05158672
207	0x3d4f850a	0.050663985
208	0xbb7e389b	-0.0038791064
209	0x3aa1ec66	0.0012353777
210	0x3dbdf18c	0.09274587
211	0x381fafb6	3.8072198e-05
212	0xbc8e25c2	-0.017351989
213	0x3d8debd4	0.06929746
214	0x3d882664	0.066479474
215	0x3cd680fe	0.026184555
216	0x3bf226b9	0.00738987
217	0x3d7d7e15	0.06188782
218	0xbc8efb53	-0.017453825
219	0xbd3fbacd	-0.046809006
220	0xbce46691	-0.027880939
221	0x3afc6b77	0.0019258101
222	0x3daf1d48	0.08550507
223	0xbc81df74	-0.015853621
224	0xba05e7b2	-0.00051080727
225	0x3d8c6444	0.06855062
226	0x3d8d6337	0.06903689
227	0x3d038d07	0.032116916
228	0xbb2c6e1a	-0.0026310743
229	0x3c78c756	0.015184244
230	0xbd5032f1	-0.05082983
231	0xbce341e5	-0.027741382
232	0x3c6ffa18	0.014647029
233	0x3d96c4f7	0.07361787
234	0x3ba52f1c	0.0050410163
235	0x3c1c989e	0.009557871
236	0xbd6695c3	-0.056295168
237	0xbc40909a	-0.011753226
238	0x3c99eb1e	0.01878887
239	0xbacc89ff	-0.0015605091
240	0x3c2c748e	0.010525836
241	0xbcbd37b1	-0.023097845
242	0xbd39abeb	-0.04532997
243	0x3c1353ab	0.008992116
244	0x3ce6ea67	0.028187944
245	0x3d8e625b	0.069523536
246	0x3d5dea2c	0.0541784
247	0x3c99beda	0.018767763
248	0x3d6cad07	0.0577822
249	0x3cefb8d4	0.029262938
250	0xbd1dd103	-0.038529407
251	0xbd3fc755	-0.046820957
252	0xbd0db388	-0.034595042
253	0xbd44e6a7	-0.04807153
254	0xba858923	-0.0010187965
255	0x3d413ba6	0.047176026

conv2.bias f4 [20]
0	0x3b5e2b74	0.0033900412
1	0x3d14ea18	0.03635606
2	0xbc824e9e	-0.015906628
3	0xbd7dffe5	-0.06201162
4	0x3cae63d5	0.021287838
5	0xbdafc9b5	-0.085833944
6	0x3d707e88	0.05871442
7	0x3d4363b0	0.04770249
8	0xbd2cb987	-0.04216912
9	0xbcdfec27	-0.027334286
10	0x3d6c2b45	0.057658453
11	0x3d46fe8c	0.0485826
12	0xba679f54	-0.00088356924
13	0x3d327353	0.043567013
14	0xbbe719c4	-0.007052632
15	0x3d5f9bc0	0.054591894
16	0x3d764c67	0.060131457
17	0x3ce26e4a	0.02764048
18	0x3cf9774f	0.030452399
19	0xba9eda77	-0.0012119551

fc1.weight f4 [50, 320]
0	0xbc8157f9	-0.015789019
1	0x3bc09b3f	0.005877882
2	0xbc43c756	-0.011949381
3	0x3c1f92b1	0.009739564
4	0x3b2565a8	0.0025237594
5	0xbd6d692c	-0.057961628
6	0x3c7f3c48	0.015578337
7	0xbc3dc7c1	-0.01158327
8	0x3bcf5c14	0.0063281152
9	0xbc3004e2	-0.010743352
10	0x3c1e1048	0.009647436
11	0x3d1a1386	0.037616275
12	0xbd5c5c18	-0.053798765
13	0xbcdd356a	-0.027003009
14	0xbc8ac5d3	-0.016940033
15	0xbd859c21	-0.0652392
16	0xbadb2f4c	-0.001672247
17	0x3cf28648	0.029605046
18	0x3cec698a	0.028858919
19	0x3d5d52ff	0.05403423
20	0x3d04512a	0.032303967
21	0xbc31aec6	-0.010844892
22	0x3b372744	0.0027946988
23	0x3c87487c	0.016514055
24	0xbd4886c2	-0.04895664
25	0x3bae49c2	0.005318851
26	0x3c479604	0.012181763
27	0x3d7e1983	0.06203605
28	0xbcb4ccbe	-0.022070285
29	0x3ce53b22	0.027982298
30	0xbb38213a	-0.0028095976
31	0xbb5b8b34	-0.003349972
32	0x3d2446bb	0.040106516
33	0x3c09709c	0.008388665
34	0x3d29b6ea	0.041434206
35	0x3d1baef0	0.03800863
36	0x3cb86586	0.022509348
37	0x3c57ef9b	0.013179685
38	0x3d30b840	0.043144464
39	0x3d31eff2	0.04344172
40	0x3bbd075d	0.0057687
41	0x3d15cf06	0.036574386
42	0x3c792717	0.015207074
43	0xbb566c39	-0.0032718314
44	0xbcde51ab	-0.027138552
45	0xbc1a5bde	-0.009421317
46	0xbbc97fb4	-0.0061492566
47	0x3d28421a	0.041078664
48	0x3d021039	0.031753752
49	0x3cfee171	0.031113358
50	0xbc022729	-0.007943907
51	0xbd268e59	-0.040663097
52	0x3ca9b2ed	0.020715201
53	0xbd1f34d4	-0.03886874
54	0xbcc6e22a	-0.024277765
55	0xbd47b9a3	-0.04876102
56	0xbcab7c13	-0.020933187
57	0xbc879f72	-0.016555522
58	0xbbf59f68	-0.0074958093
59	0x3d2f155d	0.042744983
60	0xbd6e4b5c	-0.058177337
61	0xbd61b33d	-0.055102576
62	0xbc741fa0	-0.014900118
63	0x3c4f396a	0.012647966
64	0x3d96a6b2	0.07356013
65	0x3b762ead	0.0037564442
66	0x3d2a375d	0.041556705
67	0x3d0e93af	0.03480881
68	0xbd68fe36	-0.05688306
69	0x3b2fa100	0.0026798844
70	0xbcd0f4d6	-0.025507372
71	0x3cb6cefa	0.022315491
72	0xbd04e331	-0.03244323
73	0xbd32edb4	-0.043683723
74	0xbd37828f	-0.044802245
75	0xbca9535f	-0.020669637
76	0xbdd5fd1d	-0.10448668
77	0xbdabe0f3	-0.08392515
78	0xbd502066	-0.050812148
79	0xbcacbe2f	-0.02108678
80	0x3c95bb7d	0.018277878
81	0x3d529be0	0.051418185
82	0x3d544cb4	0.051830962
83	0xbc7bafc7	-0.015361733
84	0x3d7aa3fa	0.061191536
85	0x3c6a3bae	0.014296455
86	0xbc2616cb	-0.01013727
87	0x3cb3431e	0.02188259
88	0xbcc2bd9d	-0.023772055
89	0xbccc013b	-0.02490293
90	0xbd791e64	-0.06082
91	0xbd33bf34	-0.043883517
92	0x3c3c79f0	0.011503682
93	0x3d426bf4	0.047466233
94	0x3d0cff6b	0.034423273
95	0xbc80a25a	-0.015702415
96	0x3cca91de	0.024727758
97	0x3d0b96d0	0.034079373
98	0x3b831800	0.0040006638
99	0xbcfcaaa8	-0.030843094
100	0x3c90d5ac	0.017680012
101	0xbba2419e	-0.00495167
102	0xbcb8924c	-0.022530697
103	0x3ace8bc7	0.001575821
104	0x3ccfbef7	0.025359614
105	0xbcf436f4	-0.02981136
106	0x3c479097	0.012180469
107	0xbc448dd8	-0.011996709
108	0x3d1eef6b	0.038802546
109	0x3d74fe5c	0.05981289
110	0x3d6d5b55	0.05794843
111	0x3caa1f17	0.020766778
112	0x3d26b3fa	0.040698983
113	0x3d020598	0.031743616
114	0xbc157d67	-0.0091241365
115	0xbc9b5b03	-0.018964296
116	0x3d1b49ce	0.037912183
117	0x3ca820b1	0.020523401
118	0x3d28a37b	0.041171532
119	0xbd03ae45	-0.03214862
120	0xbd47cbdf	-0.04877841
121	0x3c888bdc	0.016668253
122	0x3cd19bc8	0.025586978
123	0x3d42110a	0.04737953
124	0xbca5c91b	-0.020237496
125	0xbce3a8b2	-0.027790401
126	0x3b96a6f8	0.004597541
127	0xbd40863b	-0.047003012
128	0xbcbb20a6	-0.022842716
129	0xbb159155	-0.002282222
130	0x3ca64340	0.02029574
131	0x3cba9938	0.022778139
132	0xbd99f756	-0.07517879
133	0xbcc35262	-0.023842994
134	0xbc69fcc1	-0.014281453
135	0x3a88aed1	0.0010428076
136	0xbceb3ba2	-0.028714959
137	0x3d7537ec	0.059867784
138	0xbcbb8c01	-0.022893908
139	0x3d935b67	0.07195168
140	0xbd396543	-0.045262586
141	0x3d311da3	0.043241154
142	0x3dac17ce	0.08402978
143	0x3bc0d30c	0.0058845337
144	0xb9f64ead	-0.00046979394
145	0xbd38ae47	-0.04508808
146	0xbcb75970	-0.022381514
147	0xbcaed242	-0.021340493
148	0x3cef3df6	0.02920435
149	0xbc897dd7	-0.016783638
150	0xbd518b19	-0.051158044
151	0x3d677ba6	0.056514405
152	0xbc9fe6f0	-0.0195193
153	0x3c49ffe9	0.01232908
154	0xbd1d8886	-0.038460277
155	0xbc8928fc	-0.016743176
156	0x3ca62db4	0.020285465
157	0x3caa42e4	0.020783849
158	0xbceb9494	-0.028757371
159	0x3b15802c	0.0022811992
160	0x3c6c6ba8	0.014429964
161	0xbcbe8061	-0.023254575
162	0x3c2f221d	0.010689286
163	0x3d175434	0.036945537
164	0xbd289c99	-0.04116497
165	0x3c6c81e5	0.014435266
166	0xbd43f502	-0.04784108
167	0x3ccf3914	0.025295772
168	0xbca1d326	-0.019754004
169	0x3d0478ea	0.032341875
170	0x3d416381	0.047214035
171	0xbc96af49	-0.01839413
172	0x3d3d5387	0.046222236
173	0x3d1375d3	0.036001038
174	0x3d0162c9	0.03158835
175	0xbcd3aa56	-0.025838058
176	0x3b9aa464	0.004719304
177	0xbd27f9a0	-0.041009545
178	0xbd17841a	-0.036991216
179	0xba98f800	-0.001167059
180	0xbd3402c0	-0.043947935
181	0xbd2f8bfb	-0.042858105
182	0x3d0e0ac7	0.034678247
183	0xbcc39897	-0.023876471
184	0x3c48dd53	0.012259799
185	0x3c7860dc	0.015159812
186	0x3cf9f5d3	0.030512726
187	0x3c233da1	0.009963424
188	0xbc11490e	-0.008867515
189	0x3cdc71c4	0.026909716
190	0xbce61dfc	-0.02809047
191	0xbcda4709	-0.0266452
192	0xbc8f3bcf	-0.017484574
193	0xbd112891	-0.035439078
194	0xbd3a0880	-0.045418262
195	0x3b7148b4	0.0036817016
196	0x3d7d18ea	0.061791338
197	0x3d7bcef6	0.06147667
198	0xbcbf6476	-0.023363333
199	0x3d0bc664	0.034124747
200	0xbadb9b7a	-0.001675471
201	0x3c72035e	0.014771311
202	0xbc7ab52e	-0.015301986
203	0x3d201420	0.039081693
204	0x3cae6713	0.021289384
205	0x3c23e496	0.01000323
206	0xbd3f6d2e	-0.04673498
207	0xbd6fc42c	-0.058536693
208	0x3d2ea17a	0.042634465
209	0xbd2d4799	-0.04230461
210	0x3bc070f6	0.005872841
211	0x3cd700d9	0.026245521
212	0xbb2eff97	-0.0026702636
213	0xbcab3e09	-0.020903604
214	0x3aea6946	0.0017884157
215	0x3ba04e2e	0.0048921322
216	0xbc94d38b	-0.018167278
217	0x3cb21193	0.021736896
218	0xbcf2c1db	-0.029633453
219	0x3cf22961	0.029560747
220	0x3c41031a	0.011780525
221	0xbc7de9bc	-0.015497621
222	0x3d6e291c	0.058144674
223	0x3d6d1e4c	0.05789022
224	0x3c6863ae	0.014183922
225	0x3d479548	0.04872635
226	0x3d781467	0.060566332
227	0xbd369d58	-0.04458365
228	0x3c9aca21	0.01889521
229	0xbc82399a	-0.015896607
230	0x3cdb220d	0.026749635
231	0x3cdcd2ea	0.02695604
232	0x3d53ad6a	0.051679052
233	0x3d96517e	0.07339762
234	0xbadde134	-0.0016928078
235	0x3cdbc9a2	0.026829544
236	0xbd0e03b6	-0.034671508
237	0xbcafe52d	-0.021471584
238	0xbd15d32a	-0.036578335
239	0xbcb64c6b	-0.022253236
240	0x3d83d91f	0.06437897
241	0xbc8be8f4	-0.017078854
242	0xbbed13e1	-0.0072350358
243	0xba3b0726	-0.0007134549
244	0xbd6c1ecc	-0.057646558
245	0xbca2a182	-0.019852404
246	0xbccf7e29	-0.025328713
247	0x3d2e20bf	0.042511698
248	0xbc9a21e8	-0.018814996
249	0xbd7af326	-0.06126704
250	0x3d1f53d6	0.03889831
251	0x3d49e4ae	0.04929035
252	0xbde5f251	-0.11227859
253	0xbc465709	-0.012105712
254	0xbd6c3b25	-0.057673592
255	0x3d7e3acc	0.06206779

fc1.bias f4 [50]
0	0x3dd2c24b	0.10290965
1	0xbc9c74aa	-0.019098599
2	0x3c5b0170	0.013367042
3	0x3db8f4aa	0.09031041
4	0x3d875986	0.06608872
5	0x3e137f8d	0.14404126
6	0x3cd48bad	0.025945509
7	0x3da316a6	0.07963304
8	0xbcc731f1	-0.024315806
9	0xbc8e5aad	-0.017377222
10	0x3d9fc282	0.07800771
11	0x3ca6767f	0.020320175
12	0x3d8b6a86	0.06807427
13	0xbb5a6bef	-0.0033328494
14	0xbcb4cdcb	-0.022070786
15	0x3ae15c6a	0.0017193679
16	0x3cc57ead	0.024108255
17	0x3cb8c144	0.022553094
18	0x3d653ce5	0.055966277
19	0xbd47dd9b	-0.048795324
20	0x3d0d50b5	0.034500796
21	0x3ca6acb8	0.02034603
22	0x3bd618f7	0.0065337378
23	0x3d350c99	0.044201467
24	0x3e136b97	0.14396511
25	0x3e1d267f	0.15346716
26	0x3da25f4a	0.07928331
27	0xbc5925f3	-0.013253677
28	0xbc357b48	-0.011076756
29	0xbd1083b9	-0.03528187
30	0x3d9913cb	0.07474478
31	0x3c70123a	0.014652783
32	0xbd065c6c	-0.032802984
33	0x3dc38aa0	0.09547925
34	0xbd809098	-0.06277579
35	0x3c67a5b1	0.014138625
36	0x3df703bb	0.120612584
37	0xbc4090d3	-0.011753279
38	0x3d0e3f0f	0.034728106
39	0xbbe641b4	-0.0070268754
40	0x3cad970d	0.02119019
41	0xbd2eacc2	-0.042645223
42	0xbda14256	-0.07873981
43	0xbd31e12a	-0.043427624
44	0x3d4d6bd8	0.050151676
45	0x3d9dd056	0.077057526
46	0x3d91d08e	0.07119857
47	0x3bc0b9c0	0.005881518
48	0xbd73301f	-0.059372064
49	0xbbd2d65a	-0.006434244

fc2.weight f4 [10, 50]
0	0xbe105f61	-0.14098884
1	0xbd1b828c	-0.037966296
2	0xbd067d4e	-0.032834344
3	0x3cead715	0.028667012
4	0x3d9e8d4f	0.07741796
5	0xbe39fc94	-0.18162757
6	0xbd34889e	-0.0440756
7	0xbce3fba6	-0.027829956
8	0xbc794c15	-0.015215893
9	0xbd66d097	-0.05635127
10	0x3e889f0e	0.2668385
11	0xbc0f7490	-0.008755818
12	0xbe6724ad	-0.22572584
13	0xbe1fc594	-0.15602714
14	0x3e3b4a29	0.18290009
15	0x3e1bcc59	0.15214671
16	0x3c7601c3	0.015015068
17	0xbd894256	-0.06702106
18	0xbe348cec	-0.17631882
19	0x3dae2c00	0.08504486
20	0xbd9d5b48	-0.07683426
21	0xbe16b658	-0.14717996
22	0xbdf94613	-0.12171569
23	0x3e55e3c9	0.20887674
24	0xbcfea8bf	-0.031086324
25	0xbe2feceb	-0.17180221
26	0xbda4fa76	-0.08055584
27	0xbe0b95e7	-0.13631402
28	0x3e5df3b8	0.21675003
29	0xbdd73a37	-0.105091505
30	0xbe1c63bc	-0.1527242
31	0xbdf79932	-0.120897666
32	0x3e345882	0.17611888
33	0xbda68aac	-0.08131918
34	0xbd6d20f0	-0.05789274
35	0x3d370099	0.044678304
36	0x3e2f50b6	0.17120633
37	0x3dc3a0da	0.095521644
38	0x3ca90685	0.020632992
39	0x3d5f7195	0.05455168
40	0xbc6885fb	-0.0141921
41	0x3e44bf7c	0.1921367
42	0x3d180d91	0.037122313
43	0x3e2383eb	0.15968291
44	0xbd73de39	-0.0595381
45	0x3e2cabe3	0.16862445
46	0xbe28b464	-0.16475064
47	0xbd030cf4	-0.031994775
48	0x3cc2b2a3	0.023766821
49	0x3e0691b1	0.13141514
50	0x3d0d4c1d	0.034496415
51	0xbdb2cb39	-0.08730168
52	0xbe4eb8d6	-0.20187697
53	0x3e835d5d	0.25657168
54	0xbe6f17be	-0.233489
55	0x3e9a6db7	0.3016183
56	0x3e774fee	0.24151585
57	0xbe236b35	-0.15958865
58	0x3d35940d	0.044330645
59	0xbeb01c30	-0.34396505
60	0x3e393b24	0.18088967
61	0xbdfd06fd	-0.123548485
62	0x3daf6707	0.08564573
63	0xbdc28366	-0.094977185
64	0x3da2c6e4	0.079480916
65	0xbe731927	-0.23740064
66	0xbc3d3dd0	-0.011550382
67	0x3e384bce	0.17997667
68	0x3e460007	0.19335948
69	0xbee39a48	-0.44453645
70	0x3e4b9e56	0.19884619
71	0x3e2036c2	0.15645888
72	0xbda18fba	-0.07888742
73	0xbdfaaf15	-0.122404255
74	0x3e902435	0.28152624
75	0x3e8df8c1	0.27728847
76	0x3e6b2a6e	0.22965404
77	0xbdb037fa	-0.08604427
78	0xbe277069	-0.16351475
79	0xbe058aac	-0.1304118
80	0x3e674249	0.2258388
81	0xbdfde0af	-0.123963706
82	0xbea49612	-0.32145745
83	0x3e8a7592	0.27042824
84	0xbce4d917	-0.027935548
85	0xbc1a0e47	-0.009402818
86	0x3e343685	0.17598923
87	0xbdd5c154	-0.10437265
88	0xbd92e242	-0.071720615
89	0xbe8ccc4a	-0.2749961
90	0xbd0f7501	-0.035023693
91	0xbe1b4ba7	-0.15165578
92	0xbed37a87	-0.41304418
93	0xbc917701	-0.01775694
94	0x3ea14df4	0.31504786
95	0xbd63f4e2	-0.05565346
96	0x3eae17c2	0.340025
97	0xbd828682	-0.063733116
98	0xbe49619e	-0.19666144
99	0xbe7586eb	-0.23977248
100	0x3d5de38d	0.054172087
101	0xbd56ebfc	-0.052471146
102	0x3c63137a	0.013859624
103	0x3d982607	0.07429128
104	0x3d773e9d	0.060362447
105	0x3c86f086	0.016472112
106	0x3db299cf	0.08720743
107	0xbd5a961b	-0.053365808
108	0x3de902e0	0.113775015
109	0xbcf38145	-0.029724726
110	0xbdd2ad69	-0.102869816
111	0x3d4a879e	0.04944574
112	0x3e054f96	0.13018641
113	0x3c8ba5d1	0.01704684
114	0xbe127229	-0.14301361
115	0x3dfc29a9	0.123126335
116	0x3e18cefd	0.1492271
117	0x3c5def16	0.013545772
118	0xbdb1411c	-0.08654997
119	0x3d5a54e2	0.053303607
120	0xbd92c314	-0.071661144
121	0xbcf5d0ba	-0.030006755
122	0x3dbd1ab5	0.092336096
123	0x3df325c3	0.11872437
124	0xbd181260	-0.0371269
125	0xbe279f8a	-0.16369453
126	0x3e2db003	0.16961674
127	0xbde40046	-0.11132865
128	0x3e0e9e7a	0.13927642
129	0x3d9405dd	0.07227681
130	0x3d45e2a2	0.048311837
131	0x3cab6a42	0.020924691
132	0x3c95ccc9	0.018286126
133	0xbce6401c	-0.028106742
134	0x3e280d12	0.16411236
135	0x3dc555a2	0.09635474
136	0x3c5f929c	0.013645794
137	0xbdc286ac	-0.09498343
138	0x3ddfa0bc	0.109193295
139	0x3db2b0b9	0.087251134
140	0x3daefd07	0.08544355
141	0xbcc0ccfb	-0.023535242
142	0x3d6159e0	0.055017352
143	0x3e22e750	0.15908551
144	0x3c996c43	0.018728381
145	0x3d891556	0.06693523
146	0xbe3713f8	-0.17878711
147	0x3dccfc03	0.10009005
148	0xbd5d9963	-0.05410136
149	0x3da019f3	0.078174494
150	0x3d9a54f0	0.07535732
151	0xbdee2b5d	-0.11629365
152	0x3dbde824	0.09272793
153	0xbdb69601	-0.0891533
154	0x3dfad5c3	0.12247803
155	0xbdd5716f	-0.10422026
156	0xbcfc1a9c	-0.030774407
157	0x3dcd5c99	0.10027427
158	0xbd1a6b58	-0.037700027
159	0x3d50e3e5	0.050998587
160	0xbe07897b	-0.13236038
161	0x3d8783ca	0.06616934
162	0xbc7ad7b3	-0.015310216
163	0xbca12b8c	-0.019674085
164	0x3d6161ce	0.055024914
165	0xbde10116	-0.10986535
166	0xbd52c265	-0.05145492
167	0x3df303af	0.11865937
168	0xbd205b84	-0.039149776
169	0x3d84be4f	0.06481611
170	0xbde72705	-0.11286739
171	0x3d9fc1c9	0.078006335
172	0xbda93359	-0.08261747
173	0x3da03704	0.078229934
174	0xbd2650c7	-0.04060438
175	0xbe0cf6ed	-0.1376607
176	0x3c3d1ed5	0.011542995
177	0x3ce824e6	0.028337907
178	0x3c239bdb	0.009985889
179	0x3d8463bb	0.064643346
180	0x3d0140c5	0.03155591
181	0x3d99b22d	0.075046875
182	0x3dda0d7f	0.106471054
183	0xbe286b71	-0.16447236
184	0xbe0f6e80	-0.14006996
185	0xbe0922d5	-0.13392194
186	0xbdb766e4	-0.08955172
187	0x3d308436	0.043094836
188	0x3d7f80e1	0.062378768
189	0x3db1e280	0.086857796
190	0x3e29edfc	0.1659469
191	0xbcd5356c	-0.02602645
192	0x3cf810c1	0.030281426
193	0xbd16b638	-0.03679487
194	0xbbc8afa2	-0.0061244527
195	0x3dd8f4f4	0.10593596
196	0xbd5ca605	-0.053869266
197	0x3e1ff8c5	0.15622242
198	0xbbdd4ae8	-0.0067533143
199	0x3df4f390	0.11960518
200	0x3d94fc73	0.07274713
201	0x3e15ae1d	0.146172
202	0xbd1524f3	-0.03641219
203	0x3bda0b96	0.006654213
204	0x39ddb156	0.0004228453
205	0xbb2cd28f	-0.002637062
206	0xbdeb09cd	-0.11476479
207	0xbdd19080	-0.10232639
208	0x3e19d5bd	0.15022941
209	0x3dd83027	0.10556059
210	0xbc17e68e	-0.009271277
211	0xba3cbd57	-0.00071998447
212	0xbd0cb854	-0.034355476
213	0x3d6cdabd	0.057825793
214	0xbe004d78	-0.12529552
215	0x3e0591a5	0.1304384
216	0x3db6dcb3	0.08928814
217	0x3df4af24	0.11947468
218	0xbd894698	-0.06702918
219	0xbd0d2361	-0.034457568
220	0xbd4d08a5	-0.050057072
221	0x3e2aebfb	0.16691582
222	0x3db42014	0.08795181
223	0x3ce5e5ef	0.028063742
224	0xbbdf72ec	-0.0068191197
225	0x3d8d7074	0.06906214
226	0xbdb48389	-0.08814151
227	0x3d38a55c	0.045079574
228	0x3da1097a	0.07863136
229	0x3de2249b	0.11042138
230	0x3c96777e	0.018367525
231	0x3db3e22b	0.087833725
232	0xbdc154a3	-0.09439971
233	0xbcdb096e	-0.026737895
234	0x3de2c674	0.11073008
235	0xbd8e0d5e	-0.06936143
236	0xbe1c8c82	-0.15287974
237	0xbd10a178	-0.03531024
238	0xbde73afa	-0.11290546
239	0x3db0bf57	0.08630245
240	0xbdfd678d	-0.12373266
241	0xbd861279	-0.06546492
242	0x3d28b79b	0.041190725
243	0xbd46d4ef	-0.048542913
244	0xbdf169c1	-0.11787749
245	0xbdd98fb6	-0.10623114
246	0xbd4c74ba	-0.049916007
247	0xbcfbb290	-0.030724794
248	0x3d7831e7	0.060594466
249	0xbd06cbcf	-0.03290921
250	0x3d8274be	0.06369923
251	0x3da055e4	0.07828882
252	0xbd1564e8	-0.036473185
253	0xbe044949	-0.12918581
254	0xbdf8bc44	-0.12145284
255	0xbd7d5076	-0.06184431

fc2.bias f4 [10]
0	0x3e283b66	0.16428909
1	0x3eb502a3	0.35353574
2	0xbd373ea4	-0.044737473
3	0xbba3977b	-0.004992423
4	0x3dbf4533	0.093393706
5	0x3d1ca798	0.038245767
6	0x3c41dc11	0.011832253
7	0x3e16f048	0.14740098
8	0xbe50ab8e	-0.20377943
9	0x3cbe652d	0.023241604
